savepoint.pth (torch_old, 28324 bytes, 6 tensors)

l1.weight f4 [64, 37]
0	0xbc686ac7	-0.014185614
1	0x3d1d5c53	0.038418125
2	0xbd4b734a	-0.049670495
3	0xbd7c3ec5	-0.0615833
4	0xbdc83085	-0.09774879
5	0xbda56a30	-0.08076894
6	0xbd56df94	-0.052459314
7	0x3e697f5c	0.2280249
8	0x3e654a28	0.2239157
9	0xbc8aeb56	-0.01695792
10	0xbda7f832	-0.082016364
11	0xbd381409	-0.044940982
12	0xbda8e4e0	-0.082467794
13	0xbdb43979	-0.088000245
14	0xbe2352e2	-0.15949586
15	0x3c657b5b	0.014006461
16	0x3dee043b	0.11621901
17	0x3d1c702b	0.03819291
18	0xbc526a91	-0.01284279
19	0x3d811f5e	0.06304811
20	0xbe0d4acc	-0.13798064
21	0x3d9dc57d	0.077036835
22	0x3e7ad6b4	0.24495965
23	0x3e556843	0.20840554
24	0x3e124528	0.14284194
25	0xbe183051	-0.14862181
26	0x3d31c132	0.043397136
27	0x3e2f25c8	0.17104256
28	0xbe1a6b6a	-0.15080038
29	0x3dece84b	0.11567744
30	0xbd51018b	-0.051026862
31	0x3dca59ce	0.0988041
32	0xbcbcc969	-0.023045259
33	0xbd12b2a1	-0.035814885
34	0x3d5920a9	0.053009663
35	0xbde9454c	-0.113901705
36	0xbd2e3de0	-0.042539477
37	0x3d9434ff	0.07236671
38	0x3de4de92	0.111752644
39	0x3dac107a	0.0840158
40	0x3e52c744	0.20583826
41	0x3bc4340a	0.005987649
42	0x3e36f325	0.1786619
43	0xbe8da100	-0.27661896
44	0xbe8e2379	-0.27761438
45	0xbf0ac2a3	-0.5420324
46	0xbf83e866	-1.0305297
47	0x3e3e02ce	0.18555757
48	0xbc5978a4	-0.013273392
49	0xbe012f3e	-0.12615678
50	0x3de3fc60	0.11132121
51	0x3d818466	0.06324081
52	0x3dd42ba4	0.10359886
53	0xbc12a767	-0.008951045
54	0x3e3a3a58	0.18186319
55	0xbd16917e	-0.036759846
56	0x3de61bbc	0.11235759
57	0xbdb90def	-0.09035861
58	0xbdc6fea1	-0.09716535
59	0xbe133157	-0.1437429
60	0x3e113f56	0.14184317
61	0x39ff7343	0.00048723267
62	0xbd0382ba	-0.032107092
63	0x3d4ddd6c	0.050259992
64	0x3cbe2e63	0.023215478
65	0x3e2b0274	0.16700155
66	0xbd9a4209	-0.075321265
67	0x3d0e61e6	0.034761332
68	0x3da0ea18	0.0785715
69	0x3e477bd1	0.19480826
70	0xbcd35313	-0.025796449
71	0x3cc75598	0.024332806
72	0x3d9e42fe	0.077276215
73	0x3cfe4942	0.031040791
74	0xbea0258a	-0.3127864
75	0x3e60522c	0.21906346
76	0x3e9a7b6f	0.30172297
77	0xbdd1937e	-0.1023321
78	0xbda89285	-0.082310714
79	0xbe91fcac	-0.28513086
80	0xbe041165	-0.1289726
81	0x3c922fe3	0.0178451
82	0x3e45242c	0.1925208
83	0xbdec6ab0	-0.115437865
84	0x3e06fec5	0.13183124
85	0xbdbd1485	-0.092324294
86	0xbda59203	-0.0808449
87	0xbd8fcc66	-0.07021408
88	0x3d92a071	0.07159508
89	0xbe52b826	-0.2057806
90	0x3e8b939a	0.2726105
91	0xbdcd67ed	-0.10029588
92	0xbe3cef28	-0.18450606
93	0x3d5f9415	0.05458458
94	0xbe6aa946	-0.22916135
95	0xbe330cea	-0.17485395
96	0x3e8d6b89	0.27621105
97	0xbe4ddc34	-0.20103532
98	0xbcadaa41	-0.021199347
99	0xbeaa1a2c	-0.33223093
100	0x3e5453cf	0.20735095
101	0x3e19d7b1	0.15023686
102	0xbdc09430	-0.094032645
103	0xbd072f2b	-0.033003967
104	0xbdcef8ac	-0.10106024
105	0x3a8e2002	0.0010843279
106	0xbe581d45	-0.21104915
107	0xbe04ab1d	-0.129559
108	0x3de9baf1	0.11412609
109	0x3c97af82	0.018516306
110	0xbc4d7a7e	-0.012541411
111	0xbdf4005f	-0.11914133
112	0x3ceeb746	0.029140126
113	0x3e54ce38	0.20781791
114	0x3d052fac	0.032516167
115	0xbed28ea4	-0.4112445
116	0xbe3ed28e	-0.18635008
117	0xbddf9914	-0.10917869
118	0x3d91d629	0.07120926
119	0x3e7c5596	0.24642023
120	0xbe3a5979	-0.18198194
121	0xbc0515ed	-0.008122903
122	0xbe776d23	-0.24162726
123	0x3e28b9ef	0.16477178
124	0xbca9e179	-0.020737397
125	0xbe4954f6	-0.19661316
126	0xbd260928	-0.040536076
127	0xbe7e2c7b	-0.24821655
128	0x3e1c8e4d	0.15288658
129	0xbe65de89	-0.22448172
130	0xbf06568d	-0.52475816
131	0x3d1e01ce	0.03857594
132	0x3d8b81cb	0.068118654
133	0xbdb58755	-0.08863703
134	0xbc476040	-0.012168944
135	0x3e5ed110	0.21759439
136	0x3d0d37b5	0.034476954
137	0xbe8118df	-0.25214288
138	0x3e13e028	0.14440978
139	0x3e20e05a	0.15710583
140	0xbec1579a	-0.37762147
141	0x3e3185df	0.17336224
142	0x3e41f8ec	0.18942612
143	0x3cdd7a88	0.027035967
144	0xbf1b6e36	-0.60715044
145	0xbebee0fd	-0.37281027
146	0xbc2983e7	-0.010346389
147	0xbc76ba4f	-0.015059068
148	0xbd7c43f0	-0.061588228
149	0xbdfadea0	-0.122494936
150	0xbd98f4ed	-0.07468591
151	0xbe4c240e	-0.19935629
152	0xbe75aa85	-0.2399083
153	0x3e109fcb	0.14123456
154	0x3df98cc5	0.12185053
155	0xbdfa9a28	-0.12236434
156	0x3d447eb7	0.047972407
157	0xbeba6e21	-0.36412147
158	0x3d87ccf5	0.06630889
159	0xbe409e99	-0.188105
160	0xbd112c58	-0.03544268
161	0xbde9a0ea	-0.11407645
162	0xbe10bbd9	-0.14134158
163	0xbdb7da06	-0.089771315
164	0xbd78f6c8	-0.060782224
165	0xbdaffa2a	-0.08592637
166	0x3ddbd8c4	0.10734704
167	0x3daefef8	0.08544725
168	0xbdbb2710	-0.0913831
169	0xbd5ffbbf	-0.054683443
170	0x3e2eda3c	0.17075437
171	0xbd1e0b2f	-0.038584884
172	0x3e5ab383	0.21357541
173	0xbc7a6c2e	-0.015284581
174	0xbe6ea019	-0.2330326
175	0x3dfb5b31	0.12273253
176	0x3e75b2d4	0.23993999
177	0x3edb3c6f	0.42819545
178	0x3d368038	0.044555873
179	0xbdf1107d	-0.11770723
180	0x3db515f8	0.08842081
181	0x3e0c5443	0.13704018
182	0x3edf29ef	0.4358668
183	0x3d36c2b3	0.044619273
184	0x3d6f1429	0.058368836
185	0x3d787ba7	0.0606648
186	0x3d09deb0	0.033659637
187	0xbbb4759f	-0.0055071856
188	0xbdf057ab	-0.11735471
189	0x3dc61418	0.09671801
190	0x3ea3e7ea	0.32012874
191	0xbe25db37	-0.16196905
192	0xbe81c3e2	-0.2534476
193	0xbe99a697	-0.3000991
194	0xbf66a5a6	-0.9009651
195	0xbd3dfecf	-0.046385583
196	0xbe0f286e	-0.13980266
197	0x3dd82ced	0.10555444
198	0xbd9d3e48	-0.07677895
199	0x3dd27e60	0.1027801
200	0x3db66135	0.089052595
201	0x3b34b49f	0.002757348
202	0xbca725a3	-0.020403689
203	0xbc9472ce	-0.01812115
204	0xbd8a0f02	-0.06741144
205	0x3d82a79f	0.063796274
206	0x3e016151	0.1263478
207	0x3e090216	0.13379702
208	0x3c714fac	0.014728468
209	0x3e418647	0.18898879
210	0x3cd58a6c	0.026066981
211	0x3d84a7cb	0.064773165
212	0x3d98a722	0.07453753
213	0xbd10ebe9	-0.03538123
214	0x3e1006b7	0.14065062
215	0xbcb2a52b	-0.021807274
216	0x3da4e5ea	0.08051665
217	0xbdb5caeb	-0.08876594
218	0x3e696f24	0.22796303
219	0x3e186374	0.14881688
220	0xbdf050b4	-0.11734143
221	0x3d9fd1f4	0.07803717
222	0xbda1f560	-0.0790813
223	0xbc255e85	-0.010093336
224	0xbdd6ea6d	-0.10493932
225	0x3da0ae2e	0.07845722
226	0xbdc1c153	-0.09460702
227	0xbe46d4e5	-0.1941715
228	0xbe16cd7e	-0.14726827
229	0x3ca65467	0.020303918
230	0x3d3bdbea	0.045864023
231	0x3d26f61e	0.04076206
232	0xbe7162ca	-0.23572841
233	0x3e7d8e3d	0.24761291
234	0x3db60065	0.08886794
235	0xbe659f24	-0.22423989
236	0x3daad290	0.08340943
237	0xbda6ef9a	-0.08151169
238	0xbd4dc9dd	-0.05024134
239	0xbdadb41e	-0.0848162
240	0x3d29daa3	0.041468274
241	0x3ef65fe2	0.48120028
242	0xbe98568c	-0.2975353
243	0x3dea3acf	0.11436998
244	0x3dffc264	0.12488249
245	0xbe68900e	-0.22711203
246	0xbe43171b	-0.19051783
247	0xbd816d7f	-0.06319713
248	0xbd039be7	-0.032131102
249	0xbe52cb65	-0.20585401
250	0xbd3fe30f	-0.0468474
251	0x3bdf6c53	0.006818333
252	0xbd45ca2c	-0.04828851
253	0x3df557b2	0.11979617
254	0xbdc430c3	-0.09579613
255	0x3d1012ce	0.035174184

l1.bias f4 [64]
0	0x3df76fba	0.12081857
1	0x3c4c4883	0.01246846
2	0xbe104472	-0.1408861
3	0xbc995104	-0.01871539
4	0x3e47f61a	0.19527474
5	0xbbaa219f	-0.005191996
6	0xbde71706	-0.11283688
7	0x3d9de1a6	0.07709055
8	0xbc8ee6cd	-0.017444039
9	0xbe5bcb9e	-0.21464393
10	0x3e4050fc	0.18780893
11	0x3e4347f0	0.1907041
12	0x3df905f2	0.12159337
13	0x3df94412	0.121711865
14	0xbcbfe5cf	-0.023425011
15	0xbcf80f60	-0.030280769
16	0x3ce7fd70	0.02831909
17	0xbd91a3b2	-0.071113005
18	0x3cfa2423	0.03053481
19	0xbe266043	-0.16247658
20	0xbe077106	-0.13226709
21	0x3ddc6fa1	0.10763479
22	0x3d2c9f6b	0.04214422
23	0xbdb95eff	-0.09051322
24	0xbdf750a2	-0.12075926
25	0x3e39277e	0.18081471
26	0xbd80ea85	-0.06294731
27	0xbe0b5e65	-0.13610227
28	0x3e529394	0.20564109
29	0x3dce9b5c	0.10088226
30	0xbcf8a1c2	-0.03035057
31	0xbe05f488	-0.13081563
32	0x3e3d01f9	0.18457784
33	0x3c8c69dd	0.017140323
34	0xbe0c6ca0	-0.13713312
35	0x3cb4da7b	0.022076836
36	0xbd3b5fd0	-0.04574567
37	0x3da223ec	0.07917008
38	0xbd96ddf4	-0.07366553
39	0xbe24ff7c	-0.16113085
40	0xbd97b0fb	-0.07406803
41	0xbd753a21	-0.05986989
42	0xbdb00575	-0.08594791
43	0x3e45e24f	0.19324611
44	0x3d584ebd	0.052809466
45	0xbe2a4b04	-0.16630179
46	0x3db990be	0.090608105
47	0xbe368215	-0.1782306
48	0xbdfaf9ed	-0.12254701
49	0x3d745115	0.05964764
50	0xbe1e881b	-0.15481608
51	0x3db65676	0.0890321
52	0xbd814e83	-0.06313803
53	0xbe2f9553	-0.17146806
54	0xbe11fcd0	-0.14256597
55	0x3c28022b	0.010254423
56	0x3de26d70	0.1105603
57	0xbdaf2746	-0.08552413
58	0xbdcc0c40	-0.09963274
59	0xbd999246	-0.074986026
60	0xbb0e6618	-0.0021728333
61	0x3da71ed4	0.08160177
62	0x3d8a857c	0.067637414
63	0xbda25a82	-0.07927419

l2.weight f4 [64, 64]
0	0xbdba7543	-0.09104397
1	0x3b9821b5	0.00464269
2	0x3b6cc5f6	0.0036128736
3	0x3e2e9b96	0.17051539
4	0x3c5184b7	0.012787989
5	0xbe8ac442	-0.27102858
6	0xbe9177b7	-0.28411648
7	0xbdb9465c	-0.09046623
8	0xbe1cc8f1	-0.15311028
9	0xbe0ccc3b	-0.13749783
10	0xbdfdc0e2	-0.12390305
11	0xbe13529c	-0.14386982
12	0xbe9f28ed	-0.3108591
13	0x3e041ce2	0.12901643
14	0xbeaeba92	-0.34126717
15	0xbe9ababf	-0.302206
16	0xbdcbe2df	-0.099553816
17	0xbec41f63	-0.38305196
18	0xbd31fb09	-0.043452296
19	0xbda8328b	-0.08212765
20	0xbdd831b8	-0.10556358
21	0x3e13ce0f	0.14434074
22	0xbdba9d0b	-0.09111985
23	0x3cecdb33	0.028913116
24	0xbd35d1ce	-0.04438954
25	0x3dad1eee	0.08453165
26	0x3e60a697	0.21938549
27	0xbe32ff8b	-0.17480294
28	0xbd108949	-0.035287175
29	0xbea56e1b	-0.32310566
30	0x3e8c5891	0.2741132
31	0xbdb344cd	-0.08753357
32	0x3e946484	0.28982937
33	0x3e1c29ec	0.15250367
34	0xbd21d7d4	-0.03951247
35	0xbe19b1bc	-0.15009207
36	0xbdaaf100	-0.08346748
37	0x3db2d584	0.08732131
38	0xbde76ac5	-0.112996615
39	0xbe71e42e	-0.236222
40	0xbe8d8478	-0.27640128
41	0x3dd5392e	0.10411297
42	0x3c70e8d6	0.01470395
43	0x3c971f28	0.018447474
44	0x3abf6c74	0.0014604465
45	0xbe8569e7	-0.2605736
46	0x3dd4e64a	0.10395487
47	0xbd33d27c	-0.043901905
48	0xbef183b8	-0.47170806
49	0xbe0da004	-0.13830572
50	0xbe97e199	-0.29664305
51	0x3d4c3c15	0.049861986
52	0xbed7e9b5	-0.42170492
53	0xbe884151	-0.26612332
54	0x3d0e648c	0.034763858
55	0xbe6a82bd	-0.22901435
56	0xbe938223	-0.28810224
57	0x3dec3c10	0.115348935
58	0xbf0b384d	-0.54382783
59	0x3df1316a	0.11777003
60	0xbe86c970	-0.2632556
61	0x3e818c71	0.2530246
62	0x3db4fa9d	0.08836863
63	0xbeb03c20	-0.34420872
64	0x3d368860	0.04456365
65	0x3db05680	0.086102486
66	0x3da6dd53	0.08147683
67	0xbd719f85	-0.05899002
68	0x3d96d7dd	0.073653914
69	0x3d873685	0.06602196
70	0xbe532c06	-0.20622262
71	0x3d224819	0.03961954
72	0xbd9e1331	-0.07718504
73	0xbd420d29	-0.04737583
74	0x3c5fab4e	0.013651682
75	0x3e1f461e	0.15554091
76	0xbdeb4394	-0.11487499
77	0x3e4ee53b	0.20204632
78	0xbe34b5f9	-0.17647542
79	0x3d740972	0.05957932
80	0x3e3e8d60	0.18608618
81	0x3d73dc8d	0.059536505
82	0xbe6c5459	-0.23079051
83	0xbde2b244	-0.11069158
84	0x3d8da3c6	0.06916003
85	0xbed1814d	-0.4091896
86	0x3974dbdf	0.00023351562
87	0xbe57f45d	-0.21089311
88	0x3d60a283	0.054842483
89	0x3dd2367d	0.10264299
90	0xbd4d6539	-0.05014536
91	0xbe934946	-0.2876684
92	0x3e36bb33	0.17844848
93	0xbd60c2ac	-0.054873154
94	0xbdbdc6ba	-0.0926642
95	0xbe32bcfe	-0.17454907
96	0xbd37267b	-0.044714432
97	0x3cde42e6	0.027131509
98	0x3e476642	0.19472602
99	0xbebf8165	-0.37403408
100	0xbd37b5a2	-0.044850953
101	0x3da30f07	0.079618506
102	0x3e805ce7	0.2507088
103	0xbe2dc432	-0.16969374
104	0x3de64d34	0.11245194
105	0x3cd2cbed	0.025732005
106	0xbeb4c44a	-0.35306007
107	0xbe028a00	-0.12747955
108	0xbd31ce09	-0.04340938
109	0xbd31ab1d	-0.043376077
110	0xbe819053	-0.25305423
111	0xbd446be5	-0.04795446
112	0xbd92f55a	-0.07175703
113	0xbe88506c	-0.26623857
114	0x3d410e3a	0.047132708
115	0x3e2cb476	0.16865715
116	0xbdbc5274	-0.09195414
117	0xbe432b89	-0.19059576
118	0xbe8fd4b2	-0.2809196
119	0x3d9e47a2	0.077285066
120	0xbd33a64b	-0.04385976
121	0xbc5dac8b	-0.013529907
122	0x3e11fdc7	0.14256965
123	0x3e1017d2	0.14071587
124	0xbe1d7f03	-0.15380482
125	0xbc6f0656	-0.014588913
126	0x3ceea017	0.029129071
127	0xbde17798	-0.11009139
128	0xbdd2a069	-0.10284502
129	0xbe7bc6ba	-0.24587527
130	0xbdf523e8	-0.11969739
131	0x3daf8a20	0.08571267
132	0x3d78a45b	0.060703617
133	0xbd8bd407	-0.068275504
134	0xbe40bcec	-0.18822068
135	0xbe4da0ab	-0.20080821
136	0x3c8158e9	0.015789466
137	0xbe557de1	-0.208488
138	0xbce1d3b3	-0.027566766
139	0x3dc98654	0.09840074
140	0x3d761882	0.060081966
141	0x3d90e4f9	0.07074923
142	0xbd1e5670	-0.038656652
143	0xbe2baf7a	-0.16766158
144	0xbd9c482a	-0.07630952
145	0xbe6b6190	-0.22986436
146	0xbe8aacc2	-0.2708493
147	0xbdade0ac	-0.084901184
148	0xbe242349	-0.16029085
149	0x3e25327f	0.16132544
150	0x3e0d9aa6	0.13828525
151	0x3d9e7d85	0.07738785
152	0xbd66d2cd	-0.05635338
153	0x3c182f76	0.009288659
154	0x3e8e133f	0.2774906
155	0x3df9e193	0.12201228
156	0xbdb0381c	-0.08604452
157	0x3d048a5e	0.03235852
158	0xbe86ad24	-0.2630397
159	0x3cfff344	0.031243928
160	0xbe3123a2	-0.17298749
161	0xbe171705	-0.14754875
162	0xbecd56e8	-0.40105367
163	0xbda10ae2	-0.07863404
164	0x3dcd9d58	0.100397766
165	0x3e266303	0.16248707
166	0xbdeaa365	-0.11456946
167	0xbe9e3985	-0.3090326
168	0x3be9838a	0.0071262764
169	0x3d87b15d	0.06625626
170	0xbe832839	-0.25616625
171	0xbd49625c	-0.04916607
172	0xbda1687c	-0.07881257
173	0x3dcf98d3	0.10136571
174	0xbdcc539f	-0.09976887
175	0xbe9858f4	-0.29755366
176	0xbe7e04c4	-0.24806505
177	0xbe315aca	-0.1731979
178	0xbe9d83fe	-0.30764765
179	0x3dd31d77	0.10308354
180	0xbee86894	-0.45392287
181	0x3dd83b8d	0.105582334
182	0xbe2bf701	-0.16793443
183	0xbcb4f3f1	-0.022088977
184	0xbe3d5d67	-0.18492661
185	0xb9b2740d	-0.0003403727
186	0x3e0a1924	0.13486153
187	0x3e4881d7	0.1958078
188	0xbe5cc218	-0.21558416
189	0x3c580e94	0.013187069
190	0x3cc80978	0.024418578
191	0xbd56205f	-0.052276965
192	0xbdf6a0c4	-0.12042382
193	0xbe66118c	-0.22467631
194	0xbe1b9766	-0.15194473
195	0x3c9d4595	0.019198218
196	0x3d7a6945	0.06113555
197	0x3d8ee128	0.06976539
198	0xbd45bc44	-0.048275247
199	0xbd9e58c0	-0.077317715
200	0xbc803fd3	-0.015655434
201	0x3db9c0cd	0.09069977
202	0xbe315ea7	-0.17321263
203	0x3d8a1197	0.06741636
204	0xbe8d4156	-0.2758891
205	0x3df8fdd8	0.12157792
206	0xbe8bbf41	-0.27294353
207	0xbe6fe77a	-0.23428145
208	0x3e1d9ce6	0.15391883
209	0xbd45eeb0	-0.048323333
210	0xbe242de0	-0.16033125
211	0x3ddc0e14	0.10744873
212	0x3cbea8b1	0.023273798
213	0xbcc52772	-0.02406666
214	0x3d89a0e3	0.0672014
215	0x3def2a24	0.116779596
216	0x3e19980d	0.14999409
217	0xbe46cf35	-0.1941498
218	0x3d985a0e	0.074390516
219	0xbe6c7054	-0.23089725
220	0x3a7df76a	0.00096880517
221	0xbe3437ae	-0.17599365
222	0xbe0e3470	-0.13887191
223	0xbd824867	-0.06361466
224	0x3cfc327a	0.030785788
225	0xbe2a41d1	-0.1662667
226	0x3b92d650	0.0044811144
227	0x3d1f8ae0	0.0389508
228	0xbe27904c	-0.16363639
229	0x3e1fbe78	0.15600002
230	0xbd1fd1b5	-0.03901835
231	0xbd8a79e3	-0.06761529
232	0xbd198a0c	-0.037485167
233	0x3e1316b7	0.14364134
234	0x3e0aa02a	0.1353766
235	0x3af13483	0.001840249
236	0x3d8d932a	0.06912835
237	0xbd779d34	-0.060452655
238	0x3e0e4c0d	0.13896199
239	0xbe77626b	-0.24158637
240	0xbe369117	-0.17828785
241	0x3e419530	0.18904567
242	0xbe381d77	-0.1797999
243	0xbd7735fd	-0.06035422
244	0x3c8f8cf6	0.01752327
245	0xbe480814	-0.19534332
246	0x3dffdb58	0.124930084
247	0x3c0b50ed	0.008503181
248	0xbe95fb12	-0.29293114
249	0xbccfcef3	-0.025367236
250	0xbdcf092a	-0.1010917
251	0xbd01edec	-0.03172104
252	0xbe596bf5	-0.21232589
253	0x3cbbd66b	0.02292939
254	0x3c2a9b4c	0.010413002
255	0xbe40f252	-0.18842438

l2.bias f4 [64]
0	0x3cdc2929	0.026875095
1	0x3cd2f1b0	0.025750011
2	0x3d0f3ba2	0.03496898
3	0x3d839f52	0.06426872
4	0x3e17fca2	0.14842466
5	0xbda60ce4	-0.081079274
6	0xbe054d14	-0.13017684
7	0x3d8bd8a7	0.068284325
8	0x3d623723	0.055228364
9	0x3e86aa1d	0.2630166
10	0xbd38e46e	-0.045139723
11	0x3e1b3801	0.15158083
12	0x3ddfa140	0.10919428
13	0xbe00fac4	-0.1259566
14	0xbdd9ba42	-0.10631229
15	0x3e0b2cbf	0.13591288
16	0xbd3030bf	-0.043015238
17	0xbd14101a	-0.03614817
18	0xbc833221	-0.016015114
19	0x3d9d997c	0.076952904
20	0x3df06ec1	0.11739875
21	0x3e80bd7f	0.25144574
22	0xbe1d6173	-0.15369205
23	0xbddb0e6e	-0.106961116
24	0xbdf5d805	-0.12004093
25	0xbdc5fbf2	-0.096671954
26	0x3d5a39a3	0.053277623
27	0xbd32272b	-0.043494385
28	0xbb977638	-0.004622247
29	0x3dbe428b	0.09290036
30	0x3d44ee6c	0.04807894
31	0x3d4e4a01	0.050363544
32	0xbd51b937	-0.051202025
33	0x3dca134f	0.09866964
34	0x3dd0c107	0.10193067
35	0x3d39f774	0.045402005
36	0xbe18d9c0	-0.14926815
37	0xbe35cfc1	-0.17755033
38	0x3e8afb29	0.27144745
39	0x3d326f53	0.0435632
40	0xbd1c4d0d	-0.03815942
41	0x3ea2627e	0.3171577
42	0x3e1aefd6	0.15130553
43	0xbd594ab1	-0.053049747
44	0x3b449920	0.0029998496
45	0xbd9ca5e0	-0.07648826
46	0x3e55a1c0	0.20862484
47	0xbdc53c32	-0.09630622
48	0x3c4ede11	0.012626187
49	0xbda8ca58	-0.08241719
50	0x3bdb517d	0.006693064
51	0x3e3645bc	0.17800039
52	0xbdc45447	-0.09586387
53	0xbc6984f6	-0.014252892
54	0x3e112e8d	0.14177914
55	0xbdac434f	-0.084112756
56	0xbe3dc88a	-0.18533531
57	0xbe184d68	-0.14873278
58	0xb99c0637	-0.0002975927
59	0xbd72613e	-0.05917477
60	0xbc7d8aa9	-0.015474954
61	0x3e5e080c	0.21682757
62	0x3d5ad8b1	0.05342931
63	0xbde308c2	-0.11085655

l3.weight f4 [4, 64]
0	0xbf23cc59	-0.63983685
1	0x3e550849	0.20803942
2	0xbb827466	-0.003981161
3	0xbe0e8e25	-0.13921411
4	0x3e2fc174	0.1716364
5	0xbe9c382a	-0.305116
6	0x3e336af6	0.17521271
7	0x3cde04f9	0.02710198
8	0x3d873c63	0.06603315
9	0x3dc5f4f6	0.09665863
10	0x3d6e14a0	0.05812514
11	0x3e708867	0.23489533
12	0x3dd35d23	0.10320499
13	0x3e424c7c	0.18974489
14	0xbc2539ff	-0.010084628
15	0x3dd8b7ce	0.10581933
16	0x3bda851f	0.0066687013
17	0x3e4dc607	0.20095073
18	0x3e153996	0.14572749
19	0x3d53b666	0.05168762
20	0x3bd03d7b	0.0063549853
21	0x3e71b045	0.23602398
22	0xbce57451	-0.028009566
23	0xbdc61e9a	-0.096738055
24	0xbecd604f	-0.4011254
25	0xbe6ec852	-0.23318604
26	0xbe8f56df	-0.27995965
27	0xbe75024c	-0.23926657
28	0x3da6bff5	0.08142082
29	0x3e74e34e	0.23914835
30	0xbd3e87d4	-0.046516255
31	0x3de42862	0.11140515
32	0xbcb6d830	-0.022319883
33	0x3e17ba82	0.14817241
34	0x3de8ceaf	0.11367547
35	0x3d73d533	0.059529494
36	0x3e9015f6	0.28141755
37	0xbe3199fe	-0.173439
38	0x3dca7e21	0.098873384
39	0x3dab75d2	0.08372082
40	0x3f0230c5	0.50855666
41	0x3dd5893a	0.104265645
42	0x3d583f49	0.05279473
43	0x3d85b680	0.0652895
44	0x3dca7d24	0.0988715
45	0x3b862c7c	0.0040946584
46	0x3e0211ba	0.12702075
47	0x3da41ed4	0.080136925
48	0xbd142bf3	-0.036174726
49	0x3e82841f	0.25491425
50	0x3dbea245	0.09308294
51	0x3e449c2c	0.192002
52	0x3c0c7dde	0.008574931
53	0xbe8cb446	-0.27481288
54	0x3d926614	0.07148376
55	0x3e7b1bd3	0.24522333
56	0xbe3be74b	-0.1834995
57	0xbd93bdfd	-0.07213972
58	0x3e5e3cc6	0.2170287
59	0xbde91d5c	-0.11382553
60	0xbe446716	-0.19179949
61	0x3e11a657	0.1422361
62	0xbe889436	-0.26675576
63	0x3e87f236	0.2655198
64	0x3e6f1cdd	0.23350854
65	0x3e401655	0.18758519
66	0x3e65a440	0.22425938
67	0x3c8bacbd	0.017050141
68	0x3e1f4e02	0.15557101
69	0xbe5cdbac	-0.21568173
70	0x3e712d82	0.23552516
71	0xbda2b71c	-0.079450816
72	0xbe18fb65	-0.1493965
73	0x3de0443d	0.109505154
74	0x3e1f2962	0.1554313
75	0x3e992708	0.2991259
76	0xbd19fe7a	-0.037596203
77	0x3d4dfc79	0.050289605
78	0xbca5de60	-0.020247638
79	0x3e251429	0.16120972
80	0xbdeb195a	-0.11479445
81	0x3d5460ff	0.051850315
82	0x3dc2265a	0.09479971
83	0x3d320a57	0.043466892
84	0x3db010fd	0.0859699
85	0x3e5a65ac	0.21327847
86	0xbe83d362	-0.2574721
87	0x3cac8546	0.021059643
88	0xbd7fab65	-0.062419314
89	0xbe01fb85	-0.12693603
90	0x3d37b96c	0.044854566
91	0x3c00cf7e	0.00786197
92	0xbd123721	-0.035697106
93	0x3e78aa42	0.24283698
94	0x3e313d72	0.17308596
95	0x3d6dd6c0	0.05806613
96	0x3c3878f1	0.011259303
97	0x3e076c45	0.13224895
98	0x3df34e6e	0.11880194
99	0x3d2626ec	0.040564463
100	0x3e05e8a1	0.13077022
101	0xbe3c95d5	-0.18416531
102	0x3e235560	0.15950537
103	0x3e744201	0.23853303
104	0x3e93d51d	0.2887353
105	0x3e27fba4	0.16404587
106	0x3c227eae	0.009917898
107	0xbc2ed09c	-0.010669854
108	0x3e415d6a	0.18883291
109	0x3d9cf0ea	0.07663138
110	0x3e156d29	0.14592423
111	0xbd98ed32	-0.074671164
112	0x3d2d77c9	0.042350564
113	0x3e072fbc	0.13201803
114	0x3e78b2ce	0.24286959
115	0x3e0eeaf4	0.13956815
116	0x3bab0eb0	0.0052202567
117	0x3c85f7f7	0.01635359
118	0x3da45e1e	0.08025764
119	0x3e6bf672	0.2304323
120	0xbe41d7c3	-0.18929963
121	0xbe8d25e9	-0.27567986
122	0xbee13692	-0.43986946
123	0xbce08657	-0.027407808
124	0xbe43cedb	-0.19121878
125	0xbd8bdbcc	-0.06829032
126	0xbf11517a	-0.5676495
127	0xbc4ef99f	-0.0126327565
128	0x3d370fd8	0.044692844
129	0x3d668d27	0.056286957
130	0x3edc2c94	0.4300276
131	0x3d29cefd	0.041457165
132	0x3e1df5d5	0.15425809
133	0x3e8c50e3	0.27405462
134	0x3e85eb43	0.26156053
135	0x3e09a6cc	0.13442534
136	0x3d679ce8	0.05654612
137	0x3d3a0132	0.045411296
138	0xbe436000	-0.1907959
139	0x3e2f5b0c	0.17124575
140	0x3dc97f27	0.098387055
141	0xbef6138d	-0.4806179
142	0xbd720fdd	-0.05909716
143	0x3e639b8e	0.22227308
144	0x3d00b19c	0.03141938
145	0x3c8481e5	0.01617522
146	0xbba570fe	-0.00504887
147	0x3dc87f73	0.09789934
148	0x3e2bc311	0.1677363
149	0x3df45d4c	0.119318575
150	0xbe971e76	-0.29515427
151	0x3d932e6c	0.07186589
152	0xbe529e4b	-0.20568196
153	0x3d3563f2	0.04428477
154	0xbde494c3	-0.111611865
155	0xbe8b0228	-0.27150083
156	0x3e8040d0	0.25049448
157	0x3e5e6e1f	0.21721695
158	0x3eb357c9	0.35027912
159	0xb997f096	-0.00028980215
160	0xbd25c51b	-0.040471178
161	0x3bbdde07	0.00579429
162	0x3e664eaf	0.22490953
163	0x3e884f72	0.26623112
164	0xbd67f9bc	-0.05663465
165	0xbf0504c5	-0.519604
166	0x3e7088bb	0.23489659
167	0x3e2eefa2	0.170836
168	0x3ec59ad7	0.38594696
169	0x3e0618b4	0.13095361
170	0x3dee6754	0.11640802
171	0xbcb44f8d	-0.022010589
172	0xbc85200e	-0.016250636
173	0xbe7d628f	-0.24744628
174	0x3e112f9b	0.14178316
175	0x3e2ec0bf	0.17065714
176	0x3ea8adc6	0.3294508
177	0x3d90a82f	0.070633285
178	0x3e6b624b	0.22986715
179	0x3e838c0d	0.25692788
180	0xbe8d9cb9	-0.27658632
181	0x3c8bdae5	0.01707215
182	0x3bf9505c	0.0076084565
183	0x3d44a6f9	0.0480108
184	0xbdf6c720	-0.12049699
185	0xbe41c397	-0.18922268
186	0xbe464a7f	-0.19364356
187	0x3ccbd06e	0.02487966
188	0xbdf6f004	-0.12057498
189	0x3dead01a	0.114654735
190	0x3d072fdc	0.033004627
191	0x3ec10ec5	0.3770658
192	0x3ea02406	0.31277484
193	0x3e6fe1ae	0.23425934
194	0x3d5d07ca	0.053962506
195	0xbec8cfd8	-0.39221072
196	0x3e04f959	0.12985744
197	0xbdc413b8	-0.095740736
198	0x3df94be9	0.12172682
199	0x3c451ca3	0.012030753
200	0x3e0ad4e6	0.13557777
201	0x3df41645	0.1191831
202	0x3e87768d	0.26457635
203	0x3d0ddaff	0.03463268
204	0x3e83748d	0.2567486
205	0x3e34964a	0.17635456
206	0x3d72be00	0.05926323
207	0x3e6ca0db	0.23108236
208	0x3df07072	0.11740197
209	0x3df9404f	0.12170469
210	0x3e95ed82	0.29282767
211	0x3e278da9	0.16362633
212	0xbca63823	-0.02029044
213	0x3e1b3f00	0.15160751
214	0xbdd48246	-0.1037641
215	0x3ec7b258	0.39003253
216	0xbe11d6ba	-0.14242068
217	0xbe341e17	-0.17589603
218	0xbe26640d	-0.16249104
219	0x3dd857e2	0.10563637
220	0x3e749a21	0.2388692
221	0xbdfdac40	-0.1238637
222	0xbe998ecf	-0.29991767
223	0x3d9eb7f9	0.07749934
224	0xbe4fa107	-0.20276271
225	0x3d9d95a1	0.07694555
226	0x3c8f74bb	0.017511716
227	0xbd079d27	-0.033108857
228	0xbdded04f	-0.108795755
229	0x3d5c5265	0.053789515
230	0x3df23872	0.11827172
231	0x3eaf4cfa	0.34238416
232	0x3e3b9aec	0.18320817
233	0x3e70465b	0.23464338
234	0x3e3f6291	0.18689944
235	0xbea096c5	-0.31365028
236	0x3ecb44fc	0.39701068
237	0xbd245e5b	-0.040129047
238	0x3e181b15	0.14854081
239	0x3de5ccd3	0.11220708
240	0x3d1ec179	0.03875873
241	0x3d02bb5b	0.031916957
242	0x3e392169	0.18079151
243	0x3d1f34a5	0.038868565
244	0xbdb73d17	-0.08947199
245	0xbc819f27	-0.01582296
246	0x3e0f3e79	0.13988675
247	0x3e90b1c2	0.28260618
248	0xbdc6a0d3	-0.096986435
249	0xbe42629b	-0.18982928
250	0xbec5e6fc	-0.3865279
251	0xbea072e8	-0.31337667
252	0xbe21f7c1	-0.15817167
253	0x3c08e232	0.00835471
254	0xbe86f5f0	-0.2635951
255	0x3e91a783	0.28448114

l3.bias f4 [4]
0	0x3e68061d	0.22658582
1	0x3e487f5f	0.19579838
2	0x3e0452f2	0.12922266
3	0x3dd373f9	0.103248544
