savepoint.pth (torch_old, 28324 bytes, 6 tensors)

l1.weight f4 [64, 37]
000000 cf 3a 07 3e ad 45 96 bc da 3c 3d be 5a 2c 1f be
       0.13206027 -0.01834377 -0.18480244 -0.15544263
000010 13 80 23 bd f7 6d 97 be e5 90 80 3e 98 ab ce 3e
       -0.039917063 -0.29576084 0.25110546 0.4036529
000020 9e 85 8d 3e be 59 50 bd aa a5 77 3b a8 16 14 bd
       0.27641004 -0.050866835 0.0037787952 -0.03615442
000030 fa 1a 3c bd 6b 8f 48 be 5e 2f 24 be 63 cb 1b 3e
       -0.045924164 -0.1958596 -0.16033694 0.15214305
000040 e6 02 f5 3b 15 0d 9e 3c 1f 9b 05 be 02 4a 9c be
       0.007477152 0.019293347 -0.13047455 -0.30525213
000050 eb d4 15 3e 66 89 06 3e 7e 9b 8e 3c a1 7f f0 3d
       0.14632003 0.13138351 0.017408129 0.11743093
000060 67 b6 a5 3d d5 ab 03 be 38 8b 81 3e f9 39 ae 3d
       0.08091431 -0.12858517 0.25301528 0.08507151
000070 4d 7b 80 bc 0e e1 89 bd 16 79 79 bd d9 00 3d 3e
       -0.015683794 -0.06732379 -0.060906492 0.18457355
000080 48 d8 a6 3d 95 ba 67 3c 2c f6 12 bf 86 ca 97 bd
       0.08146721 0.014143606 -0.5740688 -0.07411675
000090 ec c1 01 bc a1 8b 89 3e 1a ca 8d 3d 82 99 0a 3d
       -0.00791977 0.2686434 0.069233134 0.033837803
0000a0 d1 6c c3 bd 59 04 20 be 1f 57 26 3e fd a2 75 be
       -0.095422395 -0.15626658 0.16244172 -0.23987956
0000b0 55 75 83 be a9 08 1f be 00 06 a8 be c9 1c 4e 3c
       -0.25675455 -0.15530647 -0.32817078 0.012580105
0000c0 e5 6d 46 3c 50 07 fb 3d 21 63 a9 3c 11 5a 14 3e
       0.012111162 0.12257254 0.020677151 0.14487483
0000d0 d4 94 64 3e 7c d5 42 bb 92 d3 97 bd 9a 80 36 3d
       0.22322398 -0.0029729297 -0.07413401 0.044556238
0000e0 6c 2d 1b bd d8 1a cf bd 49 6e 3b be c8 24 7b bc
       -0.037885115 -0.10112542 -0.18303789 -0.015328594
0000f0 e2 ad a2 3c 80 5f dc 3d ea 56 c5 bd fd 09 91 3d
       0.019858304 0.10760403 -0.09635718 0.07081983
000100 08 cf e4 3d f8 31 39 bd a6 d7 1c 3d 8a e1 a1 3d
       0.111723006 -0.04521367 0.038291596 0.07904346
000110 1b 3e 3e 3e cd dc 99 3d 95 1d 08 be 71 4a 10 3d
       0.18578379 0.075128175 -0.13292535 0.035227243
000120 4e 84 dd 3b 0b c4 58 3c 61 5d a5 bc 08 a0 de 3d
       0.0067601567 0.013230334 -0.020186128 0.10870367
000130 8d e6 37 3e 51 60 59 bc 76 14 ea bd 6b 97 26 bf
       0.17959042 -0.0132675925 -0.11429684 -0.65074795
000140 6f 68 83 bc 0e 38 a0 3e a4 1f d8 3d 0d ce b4 be
       -0.016041009 0.31292766 0.1055291 -0.35313454
000150 77 2a 2f be f8 ea f5 bd 33 25 30 3e 2d aa 1b bd
       -0.17106043 -0.12007707 0.1720169 -0.03800409
000160 dc ad 30 bb b3 57 f2 be 2e 95 e6 3d 84 d7 21 3e
       -0.0026959097 -0.47332534 0.112589225 0.15804869
000170 2d 59 85 3e 55 65 b0 3c ed d1 26 3e 50 e7 89 be
       0.26044598 0.021532694 0.16291018 -0.2693429
000180 cb c9 99 3d c1 a5 37 bd 59 77 14 bf 06 9d 15 be
       0.07509192 -0.04483581 -0.5799461 -0.14610681
000190 ec 87 b3 3d 1a 7d 57 3e c1 fe 22 be 25 33 40 bc
       0.087661594 0.21043816 -0.15917493 -0.011730944
0001a0 2c 52 a1 be 5f de 38 3e b9 2c 83 bd 97 28 8d be
       -0.31508005 0.18053578 -0.064050145 -0.2757003
0001b0 e2 05 75 bc 33 ba 00 bd fd 00 95 bb 38 a8 12 be
       -0.014955016 -0.031427573 -0.004547237 -0.14321983
0001c0 a0 93 a3 3d 71 3e 2e 3e 20 8d 74 be e1 ad 08 be
       0.079871416 0.17016007 -0.2388196 -0.1334758
0001d0 7c 8d 34 be 4c 98 73 be 66 de 55 3e 98 a3 6a be
       -0.17632097 -0.23788565 0.2088562 -0.22913969
0001e0 5e b2 df be 7f 67 1a be 96 dc 31 be f8 af 35 3e
       -0.4369077 -0.15078543 -0.17369303 0.17742908
0001f0 2b c5 e2 be 33 a4 f4 be 8f f6 26 be 1e 9f 9f be
       -0.44291052 -0.47781524 -0.16304992 -0.31176084
000200 e9 41 1f 3e 6c 4d e9 be 63 76 2d be 40 49 e4 3c
       0.15552486 -0.4556688 -0.16939692 0.02786696
000210 db de 09 be 3f 2d 41 3d 8b 42 ae be e8 83 d1 be
       -0.13463919 0.04716229 -0.34035143 -0.4092095
000220 ad 5a 24 bd 3b a0 19 bf 1e eb c2 3d 16 b6 21 be
       -0.040125538 -0.6001012 0.09517501 -0.15792117
000230 ce e6 9c be 4a 4f 1f 3e c7 64 b7 3c ea d6 98 3c
       -0.3064484 0.1555759 0.022386922 0.018657167
000240 85 9b eb be 29 9e f0 be 3b f8 35 3d 4f 5d 1c 3d
       -0.4601709 -0.46995667 0.044426184 0.038174924
000250 26 e5 52 bc f5 6c 63 be 67 3b e7 bd ca 7a 7b bd
       -0.012872016 -0.22209533 -0.11290627 -0.061396398
000260 44 3a 31 3d 4a 18 85 3e 7a 3a 47 bb d5 28 bb be
       0.043268457 0.25995094 -0.0030399845 -0.3655459
000270 02 15 8f be 17 b7 7f bf b0 ac 58 bc 07 cd 6e 3c
       -0.27945715 -0.9988875 -0.013224766 0.0145752495
000280 fb f4 d9 3b f9 a8 2d be 6e 23 2d bd c7 4f b8 bd
       0.0066515184 -0.16958989 -0.042270117 -0.08999591
000290 b4 c6 29 bc 33 1b 1e bd 8f 94 4c 3d 61 74 a5 3d
       -0.010362316 -0.038600158 0.049946364 0.08078838
0002a0 c1 53 b6 bd 4f e8 62 bd df 5b 03 3e 05 22 bd 3b
       -0.089026935 -0.055397328 0.12828015 0.0057718777
0002b0 c9 be 2a 3e 99 6f ad 3d 0e 59 35 be ac 45 a7 3d
       0.16674341 0.08468551 -0.17709753 0.08167586
0002c0 de ba 3c 3e 9c e8 6f bd 42 05 24 3e a4 1b 2d be
       0.18430659 -0.058571443 0.1601763 -0.16905075
0002d0 07 02 30 3d 3c d7 90 bd 52 72 41 3e f2 53 be ba
       0.042970683 -0.07072303 0.18891266 -0.0014520867
0002e0 11 5b 5a ba bb d1 cd 3c 28 c7 9b bd e5 b7 e4 bc
       -0.000832961 0.025124421 -0.076063454 -0.027919719
0002f0 51 fb 40 3d b0 52 4e 3c 5f 61 8c 3e 2c 2c 42 bd
       0.047114674 0.012592956 0.27418038 -0.047405407
000300 e1 45 e4 be dc 68 3e be 2d f2 77 bf 97 39 b7 bd
       -0.44584563 -0.18594688 -0.96853906 -0.08946531
000310 0a 14 4d bc f8 04 e0 bb 2a 78 8f bd eb 4d 39 3d
       -0.012516985 -0.00683653 -0.07005341 0.045240324
000320 75 60 5b 3c b2 98 bb 3d 9a 18 17 be 33 d5 a4 bc
       0.013389696 0.09159984 -0.14755479 -0.020121193
000330 b7 93 b9 bd 75 2c 9f 3d f4 d2 d3 bc c9 cf ff 3d
       -0.090613775 0.077721514 -0.025857426 0.12490804
000340 42 bd 0b 3e 17 87 7d bb 45 98 6c 3b 47 1a f5 bc
       0.13646415 -0.0038685256 0.0036101502 -0.029919757
000350 95 0c a6 3b f0 cc ab 3d b5 6b 3c 3d 14 87 ce 3c
       0.005067418 0.08388698 0.046001155 0.025210895
000360 ab cf 94 bd c2 b4 44 bd 3c a0 35 3e 4b c8 d3 bd
       -0.07266172 -0.048023947 0.17736906 -0.10340937
000370 f7 2a 18 bc d8 4f c8 3d 1a 71 2f 3e 50 14 07 be
       -0.009287587 0.09780854 0.17132989 -0.13191342
000380 2e cc d9 bd ff 06 30 be 19 1f a1 be 58 c7 24 3d
       -0.10634647 -0.17190169 -0.31469038 0.04022917
000390 a2 a9 2e be 62 03 74 3d ef 2e 58 be a1 a4 17 3e
       -0.17056897 0.05957354 -0.21111654 0.14808895
0003a0 f7 b9 22 be 0b bd 29 3e b9 93 b5 3d 9e ad b7 bd
       -0.15891252 0.1657602 0.088660665 -0.08968662
0003b0 d8 dc 88 3e 5a ab 44 be fb 57 35 3e 26 f3 36 bd
       0.2673099 -0.1920599 0.17709343 -0.04466548
0003c0 72 fb 9f bd a8 f4 3b 3e 03 3c a7 bc 70 7e 79 bd
       -0.07811631 0.18355048 -0.020414358 -0.060911596
0003d0 69 b8 c7 3d d1 90 84 be 7d 0f 1f 3e 6f 1b 49 be
       0.0975197 -0.25891736 0.15533252 -0.19639371
0003e0 80 6f 4b 3e 96 2e 12 be 54 3d 46 be cb 6d 3c 3d
       0.19866753 -0.14275584 -0.19359332 0.046003144
0003f0 33 1d 3c 3e 36 19 41 be b4 b3 d8 bd 37 37 d3 be
       0.18370514 -0.18857273 -0.10581151 -0.41253063

l1.bias f4 [64]
000000 49 12 26 3e 37 9e 31 bb bc f2 84 bd 25 4e b4 bd
       0.16217913 -0.002710236 -0.064916104 -0.088039674
000010 d2 d9 3d 3e c1 66 13 bd f3 8d c1 bd 58 50 cf 3d
       0.18540123 -0.035986666 -0.09450903 0.10122746
000020 a9 18 d5 3c b6 1d 51 be 5e 69 47 3e f0 12 c3 3d
       0.026012735 -0.2042149 0.19473788 0.095250964
000030 f8 fd 12 3e 49 7e f3 3d 9e 17 67 bd 0e 38 67 bd
       0.14354694 0.11889321 -0.056419007 -0.056449942
000040 43 fc 47 3d ce b4 90 bd 82 41 55 3d e2 04 58 be
       0.04882456 -0.07065736 0.052064426 -0.21095613
000050 9c dc b3 bd d1 34 5f 3c 68 f2 5f 3b cc 65 fc bd
       -0.08782312 0.013623432 0.0034171585 -0.12324104
000060 21 7b b9 bd b0 61 4b 3e ed 2c 60 3d d2 3a 0a be
       -0.09056688 0.19861484 0.054730345 -0.13499
000070 27 4c 02 3e a7 5f 2e 3e 78 66 91 3c 70 82 2e be
       0.12724362 0.17028676 0.017749056 -0.17041945
000080 82 95 4d 3e 19 13 01 3d ee 28 dc bd a7 0a d1 3c
       0.20076564 0.031512354 -0.10749994 0.025517775
000090 1a 84 50 3b 81 55 80 3d 18 cb 07 bd 8c 28 fa bd
       0.003181702 0.062663086 -0.03315267 -0.12214765
0000a0 a4 01 08 bd 38 f2 06 bd b2 2b 1b be 41 a8 44 3e
       -0.03320469 -0.03294584 -0.15153387 0.19204809
0000b0 00 ac cd 3b 64 c0 7e bd 1b 58 17 bd 26 28 09 be
       0.0062766075 -0.062195197 -0.03694926 -0.13394222
0000c0 8e e1 f8 bd b3 ad 9c 3d e5 7f 07 be 87 6d 71 bc
       -0.12152396 0.07650318 -0.13232382 -0.014735586
0000d0 7f 21 02 bd f5 79 c3 bc 56 23 2a be 9e 24 80 bc
       -0.031770226 -0.023861865 -0.16615042 -0.01564246
0000e0 1b f7 42 3d 0f 82 a5 bd 96 9f e9 bd ce 45 b9 bd
       0.04759894 -0.08081447 -0.11407392 -0.09046517
0000f0 6e 09 8d 3d 28 1b 62 3d 76 25 87 bc 9b 54 82 3c
       0.06886564 0.05520168 -0.016497355 0.015909484

l2.weight f4 [64, 64]
000000 8f 50 bf 3d 0a a0 54 3d c4 50 7b 3d e8 19 15 be
       0.09341537 0.051910438 0.06135632 -0.14560664
000010 99 a4 f5 3d a1 d1 15 be 2e de 62 be 75 0e e5 3d
       0.11994285 -0.14630748 -0.22155067 0.11184398
000020 c9 bb 08 3e 99 c2 12 bd 63 e3 3f 3d ec 34 bf bd
       0.13352884 -0.035830114 0.046847712 -0.09336266
000030 c5 21 82 be c9 bd 85 3e 89 d1 95 bd 88 5a 95 3d
       -0.2541639 0.26121357 -0.07315356 0.07292658
000040 59 cd 90 be 90 0f ad 3c 71 de 3c be 58 75 1c be
       -0.28281668 0.021125585 -0.1844423 -0.15279138
000050 93 d0 28 3e f8 97 0b be 43 94 bd 3d b0 57 9e 3d
       0.16485815 -0.1363219 0.09256794 0.07731569
000060 cf d8 07 be 7b ae c6 bd 33 4f 16 3e bb 96 c3 be
       -0.132663 -0.09701248 0.1467865 -0.38200936
000070 8d 93 0e bb 36 82 80 bd 2a 37 ce 3b e5 6f 90 be
       -0.0021755428 -0.06274836 0.006293197 -0.2821037
000080 11 5b 2d 3d fa ab a0 3e c5 0e 87 3d f4 fa 76 be
       0.042323176 0.31381208 0.06594614 -0.24119169
000090 73 98 10 be 11 1c da 3d 6e 58 2d 3e 0f 41 da be
       -0.14120655 0.106498845 0.16928264 -0.4262776
0000a0 9f 30 ca bd 9a f2 d7 3c 3d df e4 bd da 19 69 be
       -0.09872555 0.026360799 -0.11175392 -0.22763768
0000b0 64 43 47 3e cb b4 49 be c6 0b 50 be c7 03 25 3e
       0.19459301 -0.19697873 -0.20316991 0.16114722
0000c0 fa 62 af be 86 3a 38 be ae 62 c2 3d 00 bc f4 3c
       -0.342552 -0.17991075 0.09491478 0.029874802
0000d0 31 0e be be e7 e9 09 3e 22 13 68 be 20 c9 75 bd
       -0.37120202 0.13468133 -0.22663549 -0.06000626
0000e0 ad 01 a1 bc 40 de 7d 3c d7 5b 9f be c9 1e ab be
       -0.01965412 0.015494883 -0.31124756 -0.33421925
0000f0 9d 86 f7 3d f5 27 29 3e bb 35 04 be fc b7 97 3d
       0.12086222 0.16519149 -0.12911122 0.07408139
000100 84 67 94 3d 71 07 1b 3e 1c ed 04 be 58 ea f1 3e
       0.072463065 0.15139557 -0.12981075 0.47249103
000110 bd 79 63 3d 35 6d b8 3d a9 66 44 be 5f 01 2e 3d
       0.05553602 0.090052046 -0.19179787 0.042481776
000120 95 a8 0a be f9 a3 99 bd 2a 72 d6 bd 9f d3 1e 3e
       -0.13540871 -0.075019784 -0.10470994 0.15510415
000130 53 2a aa bd dc 7f fb 3d d6 f7 b3 bd 9a a3 99 3d
       -0.08308854 0.122802466 -0.08787505 0.07501908
000140 64 bb a1 3d e0 27 31 3d 73 2b 06 bb 8b 19 a7 bc
       0.0789707 0.04325092 -0.0020472675 -0.020397922
000150 bf f3 9f 3c d8 84 44 bd 6f 79 16 3e a6 d9 11 be
       0.019525407 -0.047978252 0.1469476 -0.14243183
000160 4d 77 01 3e 39 43 71 3d 70 55 0b bc 7e 39 65 3d
       0.12643166 0.058902 -0.008504257 0.055963032
000170 85 52 0b 3e 84 04 c3 bc 80 e9 13 bd 7d 77 d3 3d
       0.13605697 -0.023805864 -0.036111355 0.10325525
000180 a1 6c bb bd 70 ed 94 3d 61 26 b6 3d 8c ed 04 3c
       -0.09151579 0.0727185 0.08894039 0.008113276
000190 60 49 b6 3d 21 c4 35 3e 90 c0 17 bd ce bc 5d bc
       0.08900714 0.17750598 -0.037048876 -0.013533784
0001a0 45 f5 91 be cc 13 d1 3b e4 1d b5 3c 3d 65 71 bd
       -0.28507438 0.006380534 0.02210898 -0.05893444
0001b0 61 ad c3 bd fc f8 28 be 80 4e 2f be e7 9d 62 be
       -0.09554554 -0.1650123 -0.17119789 -0.22130547
0001c0 59 cb 67 be 66 6b 33 bc 07 b8 f5 bd 65 6f 56 bd
       -0.22636165 -0.010950899 -0.11997991 -0.052352328
0001d0 68 28 a7 bd 9a fc a2 3d 01 83 46 3d ac be 73 bd
       -0.08162004 0.07958336 0.04846478 -0.05950801
0001e0 7b 39 20 be d1 d6 0a 3d 85 51 39 3e ee 7a 69 3d
       -0.15646927 0.03389627 0.18097503 0.057002
0001f0 d9 f1 80 be 5d 97 87 be ea e9 85 3d cd 52 2e 3c
       -0.25184515 -0.2648267 0.06538756 0.010639858
000200 60 a9 23 be 71 cc 8a bd 62 ef b9 3b cc 94 ee 3b
       -0.1598258 -0.06777275 0.0056742886 0.0072809216
000210 ca df bf 3d 5a ff b4 3d 97 11 d2 3c 11 c2 90 bc
       0.09368856 0.08837767 0.025643153 -0.017670663
000220 ab 01 b5 3d 16 75 84 bc 80 ae 8b 3d 51 f8 a3 3d
       0.08838209 -0.016169112 0.068203926 0.08006347
000230 5b 1c 8c 3b 59 7a f0 3d 60 59 94 bd 35 85 ab 3d
       0.004275841 0.11742086 -0.072436094 0.083750166
000240 f2 11 29 be f3 8c 9f 3d 78 2a c9 3d 0e 2c fc bd
       -0.16510752 0.07790556 0.098225534 -0.1231309
000250 ae 86 bc bd cf 47 93 bc b4 f8 cc 3d 5a d6 ee 3d
       -0.092053756 -0.017978577 0.10008374 0.11661978
000260 51 39 a1 3d 27 26 3d 3e 55 34 7f 3e 8f 9c 20 3e
       0.0787226 0.18471585 0.24922307 0.15684722
000270 2b e7 9e 3d 33 44 73 3e ff 06 dc b9 cc ae ab 3d
       0.077589355 0.23756485 -0.00041966882 0.08382949
000280 87 1e bf bd 84 18 bf 3c e6 17 df bd 21 43 00 3e
       -0.093319945 0.02332712 -0.1089323 0.12525608
000290 5f cd 0e 3e e4 3b 1c 3e 85 1a c4 3e be d0 05 bc
       0.1394553 0.15257221 0.38301483 -0.008167444
0002a0 cd 84 8b 3e f0 63 b0 3c 53 ea 8e 3c d4 92 94 bd
       0.27249756 0.021532029 0.017445719 -0.07254568
0002b0 7a 20 97 3c 6a 6e a7 3d 84 3c 96 bc cb f5 9d bd
       0.018448103 0.08175357 -0.018339403 -0.07712897
0002c0 09 27 e5 3c ad 47 81 be 99 1a d6 bd bc 4c 48 bc
       0.027972715 -0.25249997 -0.10454292 -0.012225326
0002d0 84 f2 33 bd 8d 0b 9a be 17 a3 8e be 42 52 d6 bc
       -0.043932453 -0.30086938 -0.27858803 -0.02616227
0002e0 07 ff 2d 3d 85 37 4b be c9 ec d4 3d f3 b4 80 3d
       0.04247954 -0.19845398 0.10396726 0.06284513
0002f0 82 38 9b 3d d2 b8 0d 3e f9 b3 02 3e 6a 00 a0 3d
       0.075791374 0.13840035 0.12763967 0.07812579
000300 c1 0c 02 bd 12 96 7a bb 8b 20 9e 3d da e2 1f 3d
       -0.031750444 -0.0038236422 0.07721051 0.039034702
000310 60 21 57 be 6d a7 17 be 66 4f 08 be 56 ff 8c bd
       -0.21008825 -0.14809962 -0.13311538 -0.06884639
000320 47 1c cd bd 18 bd 11 be 13 cf 0e 3c 9f c3 e2 3d
       -0.10015159 -0.1423229 0.0087163625 0.11072468
000330 df bd 0a be b7 bb 19 3e 01 02 24 be ab d0 ea bd
       -0.13548993 0.15013014 -0.1601639 -0.114655815
000340 a7 0c c5 bd 50 a1 16 be 2c 17 82 3d b7 94 62 3c
       -0.09621554 -0.14709973 0.06352076 0.013829402
000350 ce 39 d6 3c 79 b6 9b 3d 4e d6 1e be 20 c6 02 3e
       0.02615061 0.07603163 -0.15511438 0.12770891
000360 3b 89 9a bd 06 39 16 3e 83 c7 27 3e 14 fc a6 be
       -0.07545706 0.1467019 0.16384701 -0.32614195
000370 d9 b0 1e 3e 12 11 77 be 4a ef 29 3e c3 e3 5d be
       0.1549715 -0.24127606 0.16595188 -0.21668915
000380 54 89 5b 3d 40 47 c5 bd 83 0b ae 3d ee f9 01 3e
       0.053597763 -0.096327305 0.084982894 0.12692997
000390 be e2 85 b9 21 1f 9e 3d 00 04 fb 3d 3c 57 16 be
       -0.00025536673 0.07720781 0.12256622 -0.14681715
0003a0 02 fc cf 3d ad 59 20 3e 46 aa 45 be 8d 62 1e bc
       0.101554886 0.15659209 -0.19303235 -0.009667051
0003b0 16 3c 07 be 10 62 fa 3d 6d c9 f0 bd ae 96 09 be
       -0.13206515 0.12225735 -0.11757169 -0.13436386
0003c0 75 64 d9 bc 4c 2e 4d 3d 4c ce 6d be 3f a5 00 be
       -0.02653716 0.05009298 -0.23223227 -0.12563036
0003d0 cc 04 54 3c 8d 22 8b 3e 25 df ed bc 37 fd f3 bd
       0.012940597 0.27174798 -0.029037068 -0.11913531
0003e0 a2 c2 11 be da 59 58 be a0 5d 17 be 50 31 6a 3e
       -0.14234403 -0.21128026 -0.14781809 0.22870374
0003f0 e2 2c 6a be 08 00 bd bd 0e 0f b3 be c7 0b 5f be
       -0.22868684 -0.092285216 -0.34972423 -0.21781836

l2.bias f4 [64]
000000 3c 51 8e bc 11 bb a5 bc 3c 0c 00 3e 4f f4 cd 3b
       -0.01737272 -0.020230802 0.12504667 0.0062852274
000010 94 f8 a2 3d ee 75 15 be 7b 44 7c bd c7 3e da 3c
       0.07957569 -0.14595768 -0.061588746 0.026641263
000020 d2 f8 37 3e ce 91 5b 3e 6a 2c b9 bd 2a 90 43 3e
       0.17966011 0.21442339 -0.090416744 0.19097963
000030 46 33 c7 3d 4b 1c 82 bc 30 2e 90 bd 58 85 03 bc
       0.097265765 -0.015882632 -0.070400596 -0.008027397
000040 13 e8 db 3b 16 c6 54 bd 22 65 c5 bd 3b 8b 5b 3e
       0.006711015 -0.051946722 -0.0963843 0.21439831
000050 d0 ca 5b 3e 04 6b b1 3e e2 d0 33 bd 94 5f 7f bd
       0.21464086 0.3465196 -0.043900378 -0.06234701
000060 d3 eb 0a be 30 db 89 bd 46 05 a6 3d fc 46 43 bd
       -0.13566522 -0.0673126 0.081064746 -0.047675118
000070 4a d8 a7 bd 40 ac 1f 3d b0 0b bb 3d f4 88 37 bd
       -0.08195551 0.03898263 0.091330886 -0.044808343
000080 06 f0 ff 3c dc 5f 07 3e cb 85 37 3d 64 32 b9 bd
       0.031242382 0.13220161 0.04480533 -0.090428144
000090 7e 5d cf bd 85 b6 24 be 0a 1c 64 3e a3 3c 6b 3b
       -0.10125254 -0.1608525 0.22276321 0.0035894297
0000a0 d3 76 66 3d 01 2f a1 3e d2 d1 d2 3d e5 d0 36 bd
       0.056265663 0.31481174 0.10293926 -0.04463281
0000b0 11 c7 8f 3d aa 85 57 bd 73 9f 23 3e 78 e1 51 be
       0.07020391 -0.052617706 0.15978794 -0.20496166
0000c0 15 7e ad 3d c1 78 32 bd b3 cf 29 bd b9 2e 11 3e
       0.08471314 -0.04357219 -0.041457843 0.1417798
0000d0 0e 11 d6 bd be 31 70 bd 2a 6d 3d 3d d6 7a db bd
       -0.10452472 -0.058641188 0.046246685 -0.107167885
0000e0 e7 db 20 be 8c 4d fc bd 8d ea 9b 3d ce ab 3a bd
       -0.15708886 -0.123194784 0.076130964 -0.045574002
0000f0 54 49 68 bb 8e 6a 34 3e f5 2f c5 3d 52 48 af bc
       -0.0035444098 0.17618772 0.09628288 -0.02139679

l3.weight f4 [4, 64]
000000 de ff 14 bf df a5 48 3e e7 57 25 3e bb 99 ac bc
       -0.5820292 0.19594525 0.16146813 -0.021069398
000010 89 04 88 3e e1 3f 91 be ab 48 85 3e 78 b0 bc bc
       0.2656596 -0.28369048 0.26032004 -0.023033366
000020 23 ec dc 3d f3 9c 4a 3d 4c 1a 12 3e b4 40 77 3e
       0.10787227 0.049466085 0.14267844 0.24145776
000030 d9 f1 86 3e da 82 85 3e 5a c7 ad 3c 4c 1f ec be
       0.2635639 0.26076394 0.021213222 -0.46117628
000040 65 9d 5c be 1c 03 0d 3e 8b 08 aa bc c1 ab 0c 3e
       -0.21544416 0.13770717 -0.020756027 0.13737394
000050 1a 50 c7 3d cf 84 ed 3d 3b 78 1e 3e d9 e3 96 bd
       0.09732075 0.11597597 0.15475552 -0.07367677
000060 3d cb a0 be cd fe de be a7 e5 8e bd 51 22 c9 3d
       -0.31405059 -0.43553773 -0.069773965 0.098209985
000070 74 9e 32 bb 69 b3 40 bb 9a 6c 97 be 14 ba 63 3d
       -0.002725509 -0.0029403812 -0.29575044 0.05559738
000080 f1 57 23 3e dd 95 f2 3d 4e 21 96 3d 2b 0a 9d bc
       0.15951516 0.118449904 0.07330571 -0.019169888
000090 f6 79 15 3e 6a 2b 76 bd 02 97 a7 3d ca 6a 84 3d
       0.14597306 -0.060099997 0.08183099 0.06465681
0000a0 eb 8d 89 3e a8 ff a7 3d 6e ef 0b be ed d9 74 3d
       0.26866087 0.082030594 -0.13665554 0.059778143
0000b0 ff 28 c2 3d d5 59 f8 3b 27 5c fc 3d 58 a2 05 3e
       0.09480476 0.007579068 0.12322264 0.1305021
0000c0 dd 37 5b 3d 5f 52 77 3e 79 02 e4 be b1 36 fd 3d
       0.053520072 0.24152516 -0.44533136 0.12363947
0000d0 0e f8 ae 3e 63 d4 17 be 35 62 b1 3d 05 d6 16 be
       0.34173626 -0.14827113 0.0866131 -0.1473008
0000e0 d4 a7 04 be b5 eb 46 bd a4 1b 69 3e 03 cb 04 be
       -0.12954646 -0.04856463 0.2276445 -0.12968068
0000f0 b6 11 1c be e5 ce ef 3d 7b 56 76 3e f8 63 1a 3e
       -0.15241131 0.11709384 0.24056427 0.15077198
000100 ba 4b 92 3e 92 19 c0 bb 67 3b 6b 3e 84 58 4f be
       0.285734 -0.005862423 0.22971879 -0.2024861
000110 33 e3 8c 3e 7d e8 b9 bd 52 aa 93 bb c6 f6 c3 bd
       0.2751709 -0.09077547 -0.0045063877 -0.09568553
000120 d8 a4 ce b7 79 99 e5 3c 62 0a ac 3d 08 2f aa 3e
       -2.4633875e-05 0.028027283 0.08400418 0.33239007
000130 83 47 a4 3d 46 8a 1b 3e f3 90 4a bd 25 c5 c8 bd
       0.08021452 0.15189466 -0.04945464 -0.09803227
000140 c6 7d eb bd 4b d1 8e 3e 63 9a 72 bd 61 c1 fa 3d
       -0.11498599 0.27894053 -0.059229266 0.12243915
000150 f3 f0 cf 3d 3e ab 10 3e df 52 ec bc bd 26 c6 bd
       0.10153379 0.14127824 -0.02884811 -0.096753575
000160 32 a2 1b be 22 fc ac be b0 41 9a 3d 2a 36 91 3e
       -0.15198591 -0.33786112 0.0753206 0.28361636
000170 bb 95 44 3e 0e b0 b0 3d 98 4c 82 3d f2 a4 65 3e
       0.19197743 0.0862733 0.06362265 0.22426203
000180 f3 cd b0 3d 8b e5 3e be 04 29 da 3d 7c 08 74 bd
       0.08633032 -0.18642251 0.10652354 -0.059578404
000190 64 a9 55 3e 66 3a 32 be 0c 3a cd 3d 4a b7 c3 3e
       0.20865399 -0.1740509 0.10020837 0.38225776
0001a0 d9 30 3c 3e d6 ee 1a 3e ae 10 eb 3b 08 1c 39 3e
       0.18378009 0.15130171 0.0071736192 0.180771
0001b0 c9 8e f0 3d 45 a1 ed bc ec b2 d5 3d fb 2e e5 3d
       0.11745984 -0.029007563 0.10434517 0.111906014
0001c0 dc 01 ab 3d c7 88 4d 3d 26 cc cd be 34 5d 16 3c
       0.08349964 0.05017927 -0.40194815 0.009177495
0001d0 a8 92 d3 3d 59 19 49 bd d1 74 d4 3d 6a 01 3d bc
       0.10330707 -0.04909644 0.103738435 -0.011535982
0001e0 77 09 04 be ff ed 4c ba 22 a8 35 3e 9b 17 e4 bd
       -0.12894236 -0.00078174466 0.17739919 -0.11137315
0001f0 25 47 d3 bd 4e 54 19 3d e4 68 a0 bd 5d ee 65 bd
       -0.10316304 0.037433915 -0.07832506 -0.056135524
000200 82 d5 84 be f3 1a be 3d 99 0c 45 3e 15 cb 23 3e
       -0.25944144 0.09282484 0.19243087 0.15995438
000210 fa fc b3 3e cd 78 23 be e4 c4 14 3d 71 75 f1 3d
       0.35153943 -0.1596405 0.036320582 0.11789978
000220 a8 0c a2 3c 15 3b cf 3d b1 89 6c bd 38 f9 30 3e
       0.019781426 0.10118691 -0.0577485 0.1728257
000230 64 e1 44 3e 58 fc b9 bd 6d f8 10 be 70 b6 b4 3d
       0.19226605 -0.09081334 -0.14157267 0.0882386
000240 fd cf ce 3d e3 ef 99 be 01 bf 75 bd 07 9b a8 3d
       0.10098264 -0.30065832 -0.05999661 0.08232694
000250 c2 28 a7 3d 00 b7 3b 3e 5c 33 7e be 4e 48 75 3e
       0.08162071 0.18331528 -0.2482428 0.23953363
000260 00 89 99 bb b7 a3 19 bf ae c6 5e 3d 22 19 a8 bd
       -0.004685521 -0.60015434 0.054388694 -0.08207919
000270 28 9b 6c 3e b6 9e f5 3d c8 a3 87 be ec b1 69 bd
       0.23106062 0.11993162 -0.26492143 -0.057054445
000280 38 59 2b bc 34 04 8e bd 22 ed 24 3e cb d9 a0 3d
       -0.010458283 -0.069343954 0.16106084 0.07854041
000290 8f 69 f4 bc d8 b9 dc be a7 94 1e 3e 25 23 97 3d
       -0.02983549 -0.43110538 0.15486394 0.0737975
0002a0 0d 06 3d 3e 75 82 03 3e 54 75 07 3e 0f c8 4e bd
       0.1845934 0.12842734 0.13228351 -0.05048376
0002b0 9a 84 be 3d ba 0a 01 3e 02 96 f2 3d 6a 94 f4 3e
       0.093026355 0.12601748 0.11845018 0.4776948
0002c0 06 1f 9d 3e 70 8a 51 3d da 9b a8 be ca 04 83 3e
       0.30687732 0.051157415 -0.32931405 0.2558959
0002d0 05 d5 f6 bd e7 4c 3e be d2 ac 43 3e 9f e5 4d bd
       -0.12052349 -0.18584023 0.19108894 -0.050267812
0002e0 50 c7 6c be 50 6c 5b bc d3 25 68 3d 83 5a ae bd
       -0.23122907 -0.013392523 0.056676697 -0.085133575
0002f0 46 d5 36 be fc a3 1b 3e 54 9a b7 be 28 80 86 3c
       -0.17854795 0.15199274 -0.3585993 0.016418532
000300 20 85 82 3e e5 3d 23 3e fe 62 b9 3d 30 ff 8d be
       0.2549219 0.1594158 0.090520844 -0.27733755
000310 f3 22 71 be f1 f2 52 bd 43 e3 51 be 54 b9 9e 3d
       -0.23548488 -0.05150122 -0.2049685 0.07750192
000320 05 79 f8 3d 9d cd 10 3e 02 58 8b 3e 58 7f b4 3d
       0.12132458 0.14140935 0.27215582 0.088133514
000330 41 c2 53 3e dd c9 81 3e 31 14 a8 3d 24 ae 92 be
       0.2067957 0.25349322 0.08206976 -0.28648484
000340 b8 3c 7f 3e ee 6f 9a 3e c0 5c 82 3d 6c 48 26 3e
       0.24925506 0.3016352 0.06365347 0.16238564
000350 d2 f3 3d 3d 9e e3 4b 3e d8 20 98 be a9 41 1a 3e
       0.046375103 0.19911048 -0.29712558 0.1506411
000360 89 36 27 bd 3e ee 62 be 92 c0 b0 3d 04 7e ec 3e
       -0.040823493 -0.22161195 0.0863048 0.46189892
000370 2c a0 da 3e bf a8 34 be 25 2e dc be 23 6a 33 3e
       0.42700326 -0.17642497 -0.43003955 0.17520957
000380 56 b3 20 bd cb e9 40 3d 38 8a 8c bd 76 46 6d 3c
       -0.039233528 0.047097962 -0.06862301 0.014482131
000390 60 b2 53 3e 25 42 18 bd b0 96 20 3e 21 41 94 3e
       0.20673513 -0.037172455 0.15682483 0.2895594
0003a0 f8 60 b7 3d c1 3c 13 3e 9a 98 cc 3d 18 da 24 be
       0.08954042 0.14378645 0.09990044 -0.16098821
0003b0 1e fa 83 3e 9c 97 44 be 03 42 ce 3d de 50 98 be
       0.25776762 -0.1919846 0.100711845 -0.29749197
0003c0 8d 51 9a bd 52 ba 10 3d 19 db 33 bd a1 9b e0 3d
       -0.07535086 0.03533394 -0.04391012 0.10967184
0003d0 78 40 6b be b7 a9 1a be 7c 86 04 3e d2 70 d0 3b
       -0.22973812 -0.15103804 0.12941927 0.0063611055
0003e0 b1 81 d0 bd 2a 82 3f be 95 3d 41 bd 31 c2 87 be
       -0.10180987 -0.18701997 -0.04717787 -0.26515344
0003f0 91 dd 6c bd 24 bb b9 3c 17 ae 1f 3e 36 63 94 3d
       -0.05782849 0.022672243 0.15593754 0.072454855

l3.bias f4 [4]
000000 33 98 58 3e e8 0c 4b 3e db af 78 3d 6e 66 be 3d
       0.2115181 0.19829142 0.060714584 0.09296881
